notebooks/cosine/siamese_regression_model.pth (torch, 22706 bytes, 5 tensors)

shared_layers.0.weight f4 [64, 10]
000000 e9 0c 2b be a5 1a 66 3e 47 b4 be be 26 10 c4 bd
       -0.16704144 0.22471102 -0.37246916 -0.095733926
000010 7c 7f 3f 3e 99 e7 04 3e a1 9c 69 bc cc 78 08 3b
       0.18700975 0.12978972 -0.014258535 0.0020823954
000020 40 46 4e 3d 22 5e b9 be 70 7b 7c be 6a 92 75 bd
       0.050359964 -0.3620463 -0.24656463 -0.059954084
000030 93 47 50 3e 83 1f 45 3e 0a f9 86 be ac 15 2d 3d
       0.20339803 0.19250302 -0.26361877 0.042256996
000040 7d 30 74 be 20 3a 01 be 4c fe cb 3c 1e 79 c1 3d
       -0.23846622 -0.12619829 0.024901532 0.094469294
000050 57 91 a2 be 53 e4 a0 be 7b cd 81 bc 20 6d 74 3d
       -0.3175151 -0.31424198 -0.015845051 0.059674382
000060 78 1d 66 bd 45 e3 81 3e f7 ff 02 bd e1 6c 14 3e
       -0.056180447 0.25368705 -0.03198239 0.14494659
000070 2f 82 8d bd a6 06 80 bb 65 64 02 3e 21 0d b5 bd
       -0.06909596 -0.0039070426 0.1273361 -0.08840395
000080 52 d1 3f 3e 22 77 9b be db b8 5f 3e 1f ea 27 bd
       0.18732193 -0.3036433 0.2184786 -0.04099476
000090 f5 12 46 be 7c bf 8b 3d d7 1e 3c 3d a3 af 06 3e
       -0.19343169 0.06823632 0.04592785 0.13152938
0000a0 32 5e 71 3e 78 d5 08 3e bf c8 b8 be 2e 32 78 be
       0.23571089 0.13362682 -0.36090657 -0.24237892
0000b0 55 f2 52 be 34 36 6b 3d fd 7b 5d 3e e1 f4 46 bc
       -0.20600255 0.05742474 0.21629329 -0.012143345
0000c0 a4 0e 0c bd 56 e7 dd 3e 08 0f d0 3e 91 ec da 3c
       -0.03419365 0.43340558 0.40636468 0.026724132
0000d0 7f 22 06 be fd 69 a7 bd cd f5 f5 3c 7e a7 0f 3d
       -0.13099097 -0.081745125 0.030024434 0.035071842
0000e0 8f 02 87 3c 45 23 c4 3e 6a a1 42 be 40 8e d5 be
       0.016480712 0.3830816 -0.19006887 -0.4171009
0000f0 5a 4c ed 3d 7f 1d cd 3c 44 2e a4 3b a8 53 c0 3d
       0.115868285 0.025038479 0.005010398 0.09390956
000100 a3 51 dd bd 7e 70 90 3e 39 2c c3 bd 57 d2 9e be
       -0.108065866 0.28210825 -0.09529919 -0.31019852
000110 46 1d d8 bd 12 b8 99 bc be 98 79 be 08 1d 20 be
       -0.105524585 -0.01876453 -0.24374673 -0.15636075
000120 9a 5a 8b bd c2 19 8c 3c ba b5 94 be 9e d5 00 be
       -0.0680439 0.017102126 -0.29044896 -0.12581488
000130 e2 6d 5e bc 55 1f d2 bc 5d 0c fd 3e 0a d0 0f be
       -0.013576003 -0.025649706 0.49423495 -0.14044204
000140 b7 e9 d7 bd ea 80 01 be 7d e7 77 3e 36 7c 4a bd
       -0.105426244 -0.12646833 0.242094 -0.049434863
000150 ce 13 ea 3c 8d 6f 9b 3d 49 a2 12 3d c1 d7 a0 bd
       0.028573897 0.07589636 0.0357993 -0.07853652
000160 46 e1 0f 3e c5 b0 87 3e 35 f0 94 bd 9a c1 80 3e
       0.14050779 0.26502052 -0.07272378 0.25147706
000170 a8 f5 8f 3e 57 aa 60 3d 3b 7e 0c bd 2c 6a ba bd
       0.28117108 0.05484995 -0.03430007 -0.09102282
000180 2f 66 ed 3d da ad 8f bc c7 44 9b bd 51 49 76 be
       0.115917556 -0.017538954 -0.075814776 -0.24051405
000190 f1 73 77 be 46 19 b1 3d ff 90 95 bd 77 bc 78 3e
       -0.24165322 0.08647399 -0.073030464 0.24290644
0001a0 f7 8e 1b 3d 7b f8 b6 3e 4c f5 79 be e6 f9 24 3d
       0.03797814 0.3573645 -0.2440998 0.040277384
0001b0 0a db bd bc 07 7c 87 be f1 84 6a be 3b c1 02 bf
       -0.023175735 -0.26461813 -0.22902276 -0.51076096
0001c0 d0 42 dc 3d 96 0f a1 3e 05 9a 53 3e a2 38 c5 be
       0.10754931 0.31457204 0.20664223 -0.3851977
0001d0 52 af 2d be 56 93 0a 3e 0c 36 b2 3e 0a 84 62 3d
       -0.1696141 0.13532767 0.3480686 0.055301704
0001e0 e9 52 96 be 37 6b 00 be 99 73 28 3e 13 e2 71 3d
       -0.2936013 -0.12540899 0.16450347 0.05905349
0001f0 34 97 12 3e 32 c4 17 be 52 a2 4f be d8 9d d4 3d
       0.14315492 -0.14820936 -0.20276764 0.10381669
000200 7b 8a fa bd 00 69 4e be 6b 2e 29 be bc 2f 53 bd
       -0.12233444 -0.20157242 -0.16521613 -0.051559195
000210 99 53 8f 3d 77 54 4d 3e 52 e5 d9 be 01 47 73 3e
       0.06998367 0.20051752 -0.4255777 0.23757555
000220 d7 35 43 3e 4e c7 21 3e 66 13 36 3e 94 b6 17 be
       0.19063507 0.15798685 0.17780837 -0.14815742
000230 9e 10 ff 3d b1 dc 25 bc 19 73 02 3d f3 7c 41 3e
       0.12454341 -0.010123418 0.031848047 0.1889532
000240 4b c1 95 bd 09 c6 16 3d 5b c4 51 3e 79 07 a5 3e
       -0.07312258 0.036809955 0.2048506 0.32232264
000250 61 10 98 3e 2f e9 b2 3e d7 18 b0 be 14 66 f4 be
       0.29699996 0.3494353 -0.3439395 -0.4773413
000260 b5 69 67 be 7f 2e d5 be 56 a4 47 3c 89 a3 c3 bd
       -0.22598918 -0.41637036 0.012185177 -0.09552676
000270 3f 30 61 3e ef b5 49 3e 31 dd 22 3e 36 b3 09 be
       0.2199106 0.19698308 0.1590469 -0.1344727
000280 ce 5d 44 bc bb e0 26 3e 71 93 98 be 5c f3 a5 bd
       -0.011985255 0.16296665 -0.2979999 -0.08103058
000290 19 7e 00 3e 4d 08 91 bd 6a d1 98 be fc 3b 89 bd
       0.12548102 -0.070816614 -0.2984727 -0.06700894
0002a0 05 0b 88 be 2d 06 3a bd 03 a6 03 be 2e 3e 6b be
       -0.26570907 -0.045416046 -0.12856297 -0.22972938
0002b0 f6 60 7b be 3f 9f 7e bd a7 d5 be bd 17 cf 07 be
       -0.24548706 -0.062163588 -0.09318095 -0.13262592
0002c0 34 8b ec 3e 40 28 92 3d 93 27 26 be 29 6f 73 bd
       0.46199954 0.07136583 -0.16226034 -0.059432182
0002d0 7c 89 4c 3e 86 4f 5d 3e 91 dd 1f 3e 43 7b e0 bd
       0.19974321 0.21612367 0.15611865 -0.1096101
0002e0 46 9b e2 bd 8c 1b 9a bd 3d 2a 64 be f3 bd 0f 3d
       -0.11064772 -0.075247854 -0.22281738 0.03509326
0002f0 6d be 1f 3e ad 61 f1 3e 81 46 ec bd b9 8e f3 3c
       0.15599985 0.47144833 -0.11536885 0.029731141
000300 1b b1 5c be 5d 6b 3a 3e 2f ae 62 bd f9 d3 27 3d
       -0.21551935 0.18205018 -0.055341896 0.040973637
000310 fe eb 1b 3e 98 b2 1b be 4b 4d d3 3d b3 98 e7 3d
       0.15226743 -0.15204847 0.10317477 0.11308422
000320 44 27 6e 3d f7 21 97 bc 1d 56 c6 be 57 39 42 be
       0.058142915 -0.018448813 -0.38737574 -0.18967186
000330 95 52 52 3e 5a 5c 61 3e 7d bd 88 3e 6b 9f c4 bd
       0.20539315 0.22007886 0.26707068 -0.09600719
000340 d8 62 61 3d 46 1d 71 3d 69 84 80 3e f5 81 62 3e
       0.055025905 0.058865808 0.2510102 0.22119887
000350 d7 25 08 bf 63 e2 89 3e e2 79 b9 be a2 a0 99 be
       -0.5318274 0.26930532 -0.36225802 -0.30005366
000360 ac 88 13 3c 21 cc 86 be 00 2e 7c be 81 35 50 be
       0.009004753 -0.26327613 -0.24626923 -0.2033291
000370 e3 27 0f 3e a3 36 30 be a4 89 f0 be 02 04 0e 3e
       0.1398006 -0.17208342 -0.4698001 0.13868716
000380 af e4 dc 3d c3 ca ce be d7 cf a8 be ba a5 af bd
       0.107858054 -0.4038907 -0.3297107 -0.08576532
000390 d9 6e bb 3e eb 61 95 be f4 21 56 bd f4 70 20 3c
       0.36608008 -0.29176268 -0.052278474 0.009792555
0003a0 06 db b8 3d 3f d4 4c be 1b ae 2e bd e4 b1 80 be
       0.090261504 -0.2000284 -0.04264651 -0.2513572
0003b0 f1 a3 a2 be 95 d8 62 be 5e d5 29 3e 3f 7d 3e 3e
       -0.31765702 -0.22152932 0.165853 0.18602465
0003c0 92 6f 8b 3d 1c 9d 4f be 92 d6 28 be ae 99 93 3d
       0.0680839 -0.20274776 -0.16488102 0.072070464
0003d0 10 9c 81 3d 55 a5 85 bd 93 cf 58 3d 41 4c 08 be
       0.06328595 -0.06525675 0.052932333 -0.13310339
0003e0 e3 37 9b be 58 de 0d be 11 2f 87 3e 37 d0 07 3d
       -0.30316076 -0.13854349 0.26403096 0.033157554
0003f0 ac 8b 49 3e 01 34 9e 3e e5 fb 60 be 43 cf b3 bc
       0.19682187 0.3089905 -0.2197109 -0.021949416

shared_layers.0.bias f4 [64]
000000 07 11 d2 be d8 e3 00 bd 9c 88 04 be 10 4b 1a be
       -0.41028616 -0.03146729 -0.12942737 -0.15067697
000010 1d fd f1 be b1 1c 5f be ed 79 45 bd c0 32 5f be
       -0.47263423 -0.21788289 -0.04821198 -0.21796703
000020 55 db 81 bd 60 04 9a 3c fb ca 88 be 93 ad 09 bf
       -0.063406624 0.018800914 -0.26717362 -0.5378048
000030 6e 28 52 be 41 1b 0e be 0e 4e ab be b3 7f fc be
       -0.20523235 -0.13877584 -0.33457989 -0.49316177
000040 a3 d1 47 3c 65 71 4c be 99 d2 5e be ec b7 cf 3d
       0.012195977 -0.19965132 -0.21760024 0.10142502
000050 5c b5 21 bd a0 54 2f bf 5b d8 75 be 32 0c 86 be
       -0.0394796 -0.684885 -0.24008314 -0.2618118
000060 4f 4c ed 3a d9 55 98 bb 3e 2c 25 bf 96 0a 4b bd
       0.0018104407 -0.0046489057 -0.64520633 -0.049570642
000070 66 6e 6a be df db 19 be 6a cb 80 be bf 35 3a be
       -0.22893676 -0.1502528 -0.25155193 -0.18184565
000080 b6 9e ad be fa c4 03 be 9f 3d fd bd 6f 9c 0a bf
       -0.3391015 -0.1286811 -0.12365269 -0.5414495
000090 b4 75 b7 be 45 71 a0 be 12 80 2e 3d 92 40 09 be
       -0.35831988 -0.31336418 0.042602606 -0.13403538
0000a0 2f e5 29 be 10 db 82 bc bf ca 72 be 4a 51 82 be
       -0.16591333 -0.015973598 -0.23710154 -0.25452644
0000b0 f6 c5 16 be 34 eb d4 be 5b 26 fd be 3d 80 32 be
       -0.14723954 -0.41585696 -0.49443325 -0.17431732
0000c0 8f c6 21 be 55 16 74 be fe df fa bd 7c 08 0d bf
       -0.157984 -0.23836644 -0.12249754 -0.5509107
0000d0 b7 95 4d be 2b 69 99 3d 82 32 fb bb 7a 58 c4 bc
       -0.20076643 0.07490762 -0.007665933 -0.02396797
0000e0 9b ad a6 be 6f c0 02 3d d2 c0 38 3e 07 a8 a0 3d
       -0.32554325 0.0319218 0.18042305 0.07844549
0000f0 18 1b 01 bf b2 01 75 3c 6d fe fc be 22 4f ef be
       -0.50431967 0.0149540175 -0.4941286 -0.4674006

shared_layers.2.weight f4 [64, 64]
000000 d4 f3 6e 3d 7c e1 9e 3d 08 4f 8d 3d 20 74 a0 bd
       0.058338 0.077578515 0.0689984 -0.07834649
000010 8a 2a 72 bc 73 bc 76 3d 1d 33 9e be 98 fb b0 3d
       -0.01478065 0.060238313 -0.3089837 0.08641738
000020 c0 ef 06 bd ce 93 34 be 4d 3f a7 3a 77 47 c9 bd
       -0.032943487 -0.17634508 0.0012759954 -0.09828084
000030 55 13 7f be b4 e8 0d be 7f 34 18 3e 9d 54 12 be
       -0.24909718 -0.138583 0.14863776 -0.1429009
000040 8e 26 b5 3e 28 7e 6e 3e db c5 77 be 2b d1 81 3d
       0.35380977 0.23290312 -0.2419657 0.06338724
000050 0f d7 ef 3b 94 49 e2 be 01 0f b1 bd bb 64 0f be
       0.007319338 -0.4419676 -0.0864544 -0.1400327
000060 26 3e 97 3e 06 63 6f 3d 72 08 d7 bc 73 9b 55 3e
       0.29539603 0.058444045 -0.026249144 0.2086008
000070 9b 28 1e be 7f 5f a4 be 91 8a 89 be 35 32 5a be
       -0.15445177 -0.32104108 -0.2686353 -0.21308215
000080 51 80 8d 3e eb eb 37 be 63 07 f0 be 87 53 4d 3e
       0.2763696 -0.1796109 -0.46880636 0.20051394
000090 01 e3 65 be 8a 1c 06 bf c4 8b 51 3e 62 77 08 3e
       -0.22449876 -0.523873 0.20463473 0.13326791
0000a0 8d e4 b5 3c 90 ba 1f 3e 4e a3 ca 3d 86 22 bf 3d
       0.022203708 0.15598512 0.09894429 0.09332757
0000b0 59 25 18 be de 71 2c 3d d4 35 c4 3e f6 8d 37 3e
       -0.14857997 0.04210078 0.38322318 0.17925248
0000c0 5c 2f 12 bb b1 fa 19 3e 93 2c 85 bd 07 f7 b8 be
       -0.002230606 0.15037037 -0.065026425 -0.36125967
0000d0 52 96 92 be 3d 48 ff 3d 5c 8b 12 3e 25 28 29 3d
       -0.2863031 0.1246495 0.14310974 0.04129805
0000e0 c9 14 1e 3e e4 4d 30 3e 1d 3e 7b 3e 8f be f6 3d
       0.15437616 0.17217213 0.24535413 0.12048065
0000f0 05 9c 7f be ee e5 1a bd 37 df ac 3e 25 e5 04 3e
       -0.2496186 -0.037816934 0.3376405 0.12978037
000100 bc 72 dd be cf cc 35 be 01 5d f3 bd 51 7d eb be
       -0.43251598 -0.1775391 -0.118829735 -0.45994046
000110 1a 48 a2 be b3 23 94 be 41 bb a7 3e f9 d0 cc bd
       -0.31695634 -0.28933486 0.3276005 -0.10000796
000120 69 ef 13 bf 50 28 c8 bd 88 74 4f 3d da 99 20 be
       -0.57787186 -0.09773314 0.050648242 -0.1568369
000130 65 03 fa bc c0 d7 37 be 07 16 71 be 4a b6 43 3e
       -0.030519197 -0.17953396 -0.23543559 0.19112507
000140 77 15 5d 3e 97 d1 75 3e cc 61 7b bd 2a 4c 57 be
       0.2159022 0.24005733 -0.061372563 -0.21025148
000150 94 a0 b4 be 4c e7 8c be 59 25 11 3d e7 b4 c1 be
       -0.3527876 -0.27520216 0.035436008 -0.3783333
000160 a6 1e d8 be 85 df 17 3e 08 b3 0b bf a3 3e 1e bf
       -0.42210883 0.1483136 -0.54570055 -0.61814326
000170 1e 91 24 bd e2 62 ac be cb 43 1d bf 8f 39 24 3e
       -0.040177457 -0.33669192 -0.6143157 0.16037582
000180 cc e9 1b be 3e 57 bf be 56 77 e0 be b3 f1 e7 be
       -0.15225905 -0.37371248 -0.43841046 -0.4530159
000190 5d 14 2f bf fc 64 87 bd 64 54 89 bf ee 46 c0 be
       -0.68390447 -0.06611058 -1.0728879 -0.37554115
0001a0 a9 4a 0e bf 9d e9 51 3e 41 71 0b bf 2f 90 7c 3d
       -0.5558267 0.20499273 -0.54469687 0.06166094
0001b0 11 6e b0 3e cd 28 4f 3d 59 fc fd 3d 4b b0 ac 3e
       0.34458974 0.05057602 0.12401647 0.3372825
0001c0 17 56 5f 3e 06 6c 95 3e d4 d6 23 3e 6d cc 1e bf
       0.21810184 0.29183978 0.15999919 -0.6203068
0001d0 e0 b3 c3 be 15 9e 02 be 64 c9 24 be 78 57 6b bf
       -0.3822317 -0.12755616 -0.1609245 -0.9193034
0001e0 f5 25 1f be d5 05 8d 3e 60 84 09 3d 96 ce 72 3e
       -0.15541823 0.27543512 0.03357351 0.23711619
0001f0 3d 8e 42 3d 01 9c e3 3d f2 9f c4 3e e2 18 eb bd
       0.04749893 0.1111374 0.3840328 -0.114793554
000200 23 60 86 3d 99 e5 bf be 84 1b 12 be 22 03 94 bd
       0.065613054 -0.37479857 -0.14268309 -0.0722716
000210 32 d0 95 be 2a db 30 3e c8 9d 8b 3d d9 c1 24 bf
       -0.29260403 0.17271104 0.06817204 -0.6435829
000220 21 f6 1b bd d0 41 26 3d af 35 f0 be 26 84 e5 bc
       -0.038076524 0.040590107 -0.46915957 -0.028017115
000230 22 e1 79 3c c2 60 f6 3d 71 c9 84 3e 7a e6 5b be
       0.01525143 0.12030174 0.25934938 -0.21474639
000240 5d cd 3d 3d 35 b2 85 bd e8 7d ad bc 84 11 53 3e
       0.046338428 -0.06528131 -0.0211782 0.2061215
000250 e8 a1 ae be 6a 0d 63 be 3e 72 c5 3e 1b 79 3a 3e
       -0.341079 -0.22173086 0.38563722 0.1821026
000260 d0 c6 91 3e 1d 08 81 3d dd 1e e7 bd b0 ca ff bd
       0.28471994 0.063003756 -0.112851836 -0.124898314
000270 9a 5c 02 be 0d 51 c0 3e 3b 36 89 be f6 6d 63 3d
       -0.12730637 0.37561837 -0.26799187 0.05552479
000280 b1 71 25 3e 88 80 d3 bc 5c c6 87 3e a4 35 88 bc
       0.16156651 -0.025818124 0.26518524 -0.01662714
000290 9b 3c 80 be b5 42 e7 bd 5c 67 13 ba 75 34 37 bb
       -0.25046238 -0.1129202 -0.0005623007 -0.002795485
0002a0 cc 26 c7 bd 1b a1 c3 bc 80 16 45 3e b9 02 a1 bb
       -0.09724197 -0.023880532 0.19246864 -0.0049136546
0002b0 88 49 86 ba 40 32 0f be 5a b0 87 3e 31 52 d1 bd
       -0.0010245303 -0.13984013 0.26501733 -0.10220755
0002c0 28 e1 85 3d 33 4c d2 3e a1 35 5a 3e 57 e7 c8 be
       0.06537086 0.4107376 0.2130952 -0.39238998
0002d0 94 d0 72 be 9a 89 74 3d e1 f5 c9 be 72 09 3c 3e
       -0.23712379 0.05970154 -0.39445403 0.18362978
0002e0 66 de 0c 3c e9 d0 9c 3e dd 89 92 3e 0a cb 40 3e
       0.008597946 0.30628136 0.28620806 0.18827453
0002f0 75 83 b6 bc 0d 73 1b 3e ba a0 93 3c 01 5f 3c 3d
       -0.02227948 0.15180607 0.018020976 0.04598904
000300 f0 ed d2 bc 02 4a 0b 3d 77 fc 03 3d d8 5e 1f be
       -0.025748223 0.034006126 0.03222319 -0.15563524
000310 1f ef 2e bc b9 ea 96 3e f2 ef bc 3c 42 8d 82 3d
       -0.010677128 0.29475954 0.023063634 0.06374599
000320 d2 9f da be db 98 c0 3a 5c 2b c3 3e 52 0e 71 bc
       -0.42700058 0.0014693992 0.38119018 -0.014712887
000330 12 13 8b be 0e e1 e6 bd f9 88 29 3d ee bb b1 be
       -0.27162987 -0.112733945 0.041390393 -0.3471369
000340 8a cd 5f be 62 37 32 bc 37 2a 86 3e 7d 1e 09 3e
       -0.2185575 -0.010877462 0.26204082 0.13390537
000350 72 d2 da 3e 83 9b 55 bd fa 02 c4 bc 37 35 9b 3a
       0.42738682 -0.05215026 -0.0239272 0.0011841421
000360 ff 73 72 3e 44 bb 3b be f1 5e 9a be 03 bd 27 3e
       0.23677061 -0.18333155 -0.3015056 0.16380696
000370 a6 2f 8c bd cf dd 4c be cd e1 2f 3e 3b a2 32 be
       -0.06845026 -0.20006488 0.1717598 -0.17444699
000380 7c 5f aa 3e 36 1f ed 3d b7 5a 7f 3e 3a 90 aa 3d
       0.33275974 0.11578219 0.24936949 0.0832829
000390 5f 07 bf be 02 ab 2b 3e 03 6a 81 3b be 71 eb 3d
       -0.3731031 0.16764453 0.003949405 0.11496304
0003a0 34 6a 48 3e cd ba 2e 3e 87 82 8a be 9f 24 c7 be
       0.19571763 0.17063446 -0.2705271 -0.38895127
0003b0 6f e6 5e be 02 18 e3 3e 31 76 67 be c0 02 0d be
       -0.21767591 0.44354254 -0.2260368 -0.1377058
0003c0 38 57 93 3e 01 86 6f be 73 e0 83 3e c9 c1 cd bd
       0.2877748 -0.23390962 0.2575718 -0.10046727
0003d0 4d bf ea 3c 0e 33 d2 3e b0 ac 0e be f5 09 57 3c
       0.028655672 0.41054577 -0.13933063 0.013124933
0003e0 88 8c f9 bd 39 10 78 3e 1c 4c c7 bd 88 b9 d3 3e
       -0.12185007 0.24224938 -0.097313136 0.41352487
0003f0 89 57 9b 3e a2 5b 2e 3e 0d 13 18 3c 0e 09 f6 3d
       0.30340222 0.17027143 0.009281886 0.12013446

shared_layers.2.bias f4 [64]
000000 ba 0b 10 3f f3 9c 67 3d 62 7d ef 3e 58 66 b3 3e
       0.56267893 0.056546163 0.46775347 0.3503902
000010 bf 4e 30 3e 08 88 15 3d 70 c4 6e 3e 5e 4e b2 3e
       0.17217539 0.036506683 0.23317122 0.34825414
000020 1f 54 4c 3e 5d 88 ff 3e 6c c7 5e bd a0 87 8a 3d
       0.19953965 0.49908724 -0.054389402 0.0676415
000030 86 c1 f5 3e f2 09 27 3c 91 ea 3c bd a8 98 03 3f
       0.4799921 0.010195242 -0.046122137 0.5140481
000040 68 8a 43 3e 64 6d 7d 3e bd 64 1f 3e 27 24 bb 3e
       0.19095767 0.2474876 0.15565772 0.3655102
000050 31 32 3a 3e 7b 5b 7e 3e 9b 13 e0 bd 76 2c b5 3e
       0.18183209 0.24839585 -0.109412394 0.35385484
000060 86 07 a5 3d 5a a2 cc 3d 2e da 9d 3e 80 01 5b 3e
       0.080580756 0.099919036 0.3083052 0.21387291
000070 eb ee b0 3e d7 33 79 3e 46 2a 81 3e 21 32 7a bb
       0.3455728 0.24336182 0.25227565 -0.0038176852
000080 c6 6b 07 3f 8b 73 a2 bc 8d 30 44 3e a3 15 56 3d
       0.52898824 -0.019830486 0.19159146 0.052266728
000090 ab a6 11 3e a8 62 ac 3d 8f 3d 02 3f 5b 75 94 bd
       0.14223735 0.08417255 0.5087518 -0.07248946
0000a0 9e 24 e9 3e db 71 ae 3e b0 7c 4f 3e f9 f8 fb 3e
       0.4553575 0.3407124 0.20262408 0.4921339
0000b0 68 c6 78 3e 86 82 81 3e 07 37 eb 3d 7b 62 e9 3e
       0.24294436 0.25294894 0.11485105 0.45582947
0000c0 bc da 03 3f 4a b6 2c 3e 7e 23 0e 3e 05 0b 9b 3e
       0.5150564 0.16866413 0.13880727 0.30281845
0000d0 b1 6f 96 3e 00 04 b1 3e d5 4a fd bc 95 81 bc bd
       0.2938209 0.34573364 -0.030919472 -0.09204403
0000e0 64 45 85 bd e0 a5 13 3e 97 5f 0b 3e 77 f8 a8 3e
       -0.06507376 0.14418745 0.13610683 0.33002064
0000f0 ea 88 d3 3e e5 39 02 3f da 82 9c 3e 68 eb 6a be
       0.41315395 0.5086959 0.30568582 -0.22941363

fc.weight f4 [1, 64]
000000 18 1d 95 3e 71 37 78 be db 09 d4 3e 8b 18 e3 be
       0.2912376 -0.24239899 0.4141377 -0.44354662
000010 f4 6f ad 3e 75 83 a5 3e 9a fb 88 3e 61 89 c0 3e
       0.33874476 0.32326856 0.26754457 0.37604812
000020 04 dd 79 be e7 04 97 3e 8c 96 76 be 56 a9 71 be
       -0.24400717 0.29495928 -0.24080867 -0.23599753
000030 55 ce 52 be bc e7 b8 3e 5e 7d e0 3d 49 c3 b6 be
       -0.20586522 0.361143 0.10961412 -0.35695866
000040 d1 aa 8e be 30 90 95 3e e8 90 9e be 49 99 c2 be
       -0.27864698 0.2921157 -0.3096993 -0.38007572
000050 16 48 6b be 28 1f 3b 3e 0a 67 ed 3d 1f 39 cb be
       -0.22976717 0.18273604 0.11591919 -0.39692017
000060 60 8f cd 3d c2 fc 6e 3c af d2 77 be 3c b1 b8 be
       0.10037112 0.014586629 -0.24201463 -0.3607272
000070 22 6f b6 be cc a7 73 be 18 37 b8 be c8 67 c1 be
       -0.35631663 -0.23794478 -0.35979533 -0.3777449
000080 a5 2d c3 be 97 1e a8 3e 4f 8d 6e be 43 73 02 3e
       -0.38120762 0.32835838 -0.23296092 0.12739281
000090 ad fc f3 bd 6f 1f f5 be f9 af de 3e c5 61 32 bf
       -0.119134285 -0.47875544 0.4349363 -0.69680434
0000a0 67 3a e5 3e f5 64 98 3e 4e 5f bf be 82 a1 a0 3e
       0.4477112 0.29764524 -0.373774 0.3137322
0000b0 e5 e1 34 3e 7c 87 77 bf ee fb 9e be 65 4f b2 3e
       0.17664297 -0.9669111 -0.31051582 0.34826198
0000c0 e1 9d b3 3e 95 7f 95 3e 9a 4c a7 3d 7c f7 9a 3e
       0.3508139 0.291989 0.081689075 0.3026694
0000d0 37 75 94 be 5e f2 f2 3e 32 2a 90 3e 59 ba d2 3e
       -0.28995678 0.47450536 0.28157192 0.41157797
0000e0 c7 cf 05 3b 00 91 88 be 16 7e 63 be cf f9 02 bf
       0.0020418034 -0.26673126 -0.22216067 -0.5116243
0000f0 05 0f b0 3e 14 b6 9a 3e 60 e2 d0 be b8 ea 0a bf
       0.3438646 0.3021704 -0.4079771 -0.542644
